…
I1130 04:11:53.205441  3918 net.cpp:322] The NetState phase (0) differed from the phase (1) specified by a rule in layer accuracy
I1130 04:11:53.205644  3918 net.cpp:49] Initializing net from parameters: 
name: "FlickrStyleCaffeNet"
state {
  phase: TRAIN
}
layer {
  name: "data"
  type: "ImageData"
  top: "data"
  top: "label"
  include {
    phase: TRAIN
  }
  transform_param {
    mirror: true
    crop_size: 227
    mean_file: "data/ilsvrc12/imagenet_mean.binaryproto"
  }
  image_data_param {
    source: "data/ispick_style/train"
    batch_size: 32
    new_height: 256
    new_width: 256
  }
}
layer {
  name: "conv1"
  type: "Convolution"
  bottom: "data"
  top: "conv1"
  param {
    lr_mult: 1
    decay_mult: 1
  }
  param {
    lr_mult: 2
    decay_mult: 0
  }
  convolution_param {
    num_output: 96
    kernel_size: 11
    stride: 4
    weight_filler {
      type: "gaussian"
      std: 0.01
    }
    bias_filler {
      type: "constant"
      value: 0
    }
  }
}
layer {
  name: "relu1"
  type: "ReLU"
  bottom: "conv1"
  top: "conv1"
}
layer {
  name: "pool1"
  type: "Pooling"
  bottom: "conv1"
  top: "pool1"
  pooling_param {
    pool: MAX
    kernel_size: 3
    stride: 2
  }
}
layer {
  name: "norm1"
  type: "LRN"
  bottom: "pool1"
  top: "norm1"
  lrn_param {
    local_size: 5
    alpha: 0.0001
    beta: 0.75
  }
}
layer {
  name: "conv2"
  type: "Convolution"
  bottom: "norm1"
  top: "conv2"
  param {
    lr_mult: 1
    decay_mult: 1
  }
  param {
    lr_mult: 2
    decay_mult: 0
  }
  convolution_param {
    num_output: 256
    pad: 2
    kernel_size: 5
    group: 2
    weight_filler {
      type: "gaussian"
      std: 0.01
    }
    bias_filler {
      type: "constant"
      value: 1
    }
  }
}
layer {
  name: "relu2"
  type: "ReLU"
  bottom: "conv2"
  top: "conv2"
}
layer {
  name: "pool2"
  type: "Pooling"
  bottom: "conv2"
  top: "pool2"
  pooling_param {
    pool: MAX
    kernel_size: 3
    stride: 2
  }
}
layer {
  name: "norm2"
  type: "LRN"
  bottom: "pool2"
  top: "norm2"
  lrn_param {
    local_size: 5
    alpha: 0.0001
    beta: 0.75
  }
}
layer {
  name: "conv3"
  type: "Convolution"
  bottom: "norm2"
  top: "conv3"
  param {
    lr_mult: 1
    decay_mult: 1
  }
  param {
    lr_mult: 2
    decay_mult: 0
  }
  convolution_param {
    num_output: 384
    pad: 1
    kernel_size: 3
    weight_filler {
      type: "gaussian"
      std: 0.01
    }
    bias_filler {
      type: "constant"
      value: 0
    }
  }
}
layer {
  name: "relu3"
  type: "ReLU"
  bottom: "conv3"
  top: "conv3"
}
layer {
  name: "conv4"
  type: "Convolution"
  bottom: "conv3"
  top: "conv4"
  param {
    lr_mult: 1
    decay_mult: 1
  }
  param {
    lr_mult: 2
    decay_mult: 0
  }
  convolution_param {
    num_output: 384
    pad: 1
    kernel_size: 3
    group: 2
    weight_filler {
      type: "gaussian"
      std: 0.01
    }
    bias_filler {
      type: "constant"
      value: 1
    }
  }
}
layer {
  name: "relu4"
  type: "ReLU"
  bottom: "conv4"
  top: "conv4"
}
layer {
  name: "conv5"
  type: "Convolution"
  bottom: "conv4"
  top: "conv5"
  param {
    lr_mult: 1
    decay_mult: 1
  }
  param {
    lr_mult: 2
    decay_mult: 0
  }
  convolution_param {
    num_output: 256
    pad: 1
    kernel_size: 3
    group: 2
    weight_filler {
      type: "gaussian"
      std: 0.01
    }
    bias_filler {
      type: "constant"
      value: 1
    }
  }
}
layer {
  name: "relu5"
  type: "ReLU"
  bottom: "conv5"
  top: "conv5"
}
layer {
  name: "pool5"
  type: "Pooling"
  bottom: "conv5"
  top: "pool5"
  pooling_param {
    pool: MAX
    kernel_size: 3
    stride: 2
  }
}
layer {
  name: "fc6"
  type: "InnerProduct"
  bottom: "pool5"
  top: "fc6"
  param {
    lr_mult: 1
    decay_mult: 1
  }
  param {
    lr_mult: 2
    decay_mult: 0
  }
  inner_product_param {
    num_output: 4096
    weight_filler {
      type: "gaussian"
      std: 0.005
    }
    bias_filler {
      type: "constant"
      value: 1
    }
  }
}
layer {
  name: "relu6"
  type: "ReLU"
  bottom: "fc6"
  top: "fc6"
}
layer {
  name: "drop6"
  type: "Dropout"
  bottom: "fc6"
  top: "fc6"
  dropout_param {
    dropout_ratio: 0.5
  }
}
layer {
  name: "fc7"
  type: "InnerProduct"
  bottom: "fc6"
  top: "fc7"
  param {
    lr_mult: 1
    decay_mult: 1
  }
  param {
    lr_mult: 2
    decay_mult: 0
  }
  inner_product_param {
    num_output: 4096
    weight_filler {
      type: "gaussian"
      std: 0.005
    }
    bias_filler {
      type: "constant"
      value: 1
    }
  }
}
layer {
  name: "relu7"
  type: "ReLU"
  bottom: "fc7"
  top: "fc7"
}
layer {
  name: "drop7"
  type: "Dropout"
  bottom: "fc7"
  top: "fc7"
  dropout_param {
    dropout_ratio: 0.5
  }
}
layer {
  name: "fc8_flickr"
  type: "InnerProduct"
  bottom: "fc7"
  top: "fc8_flickr"
  param {
    lr_mult: 10
    decay_mult: 1
  }
  param {
    lr_mult: 20
    decay_mult: 0
  }
  inner_product_param {
    num_output: 2
    weight_filler {
      type: "gaussian"
      std: 0.01
    }
    bias_filler {
      type: "constant"
      value: 0
    }
  }
}
layer {
  name: "loss"
  type: "SoftmaxWithLoss"
  bottom: "fc8_flickr"
  bottom: "label"
  top: "loss"
}
I1130 04:11:53.206913  3918 layer_factory.hpp:76] Creating layer data
I1130 04:11:53.209388  3918 net.cpp:106] Creating Layer data
I1130 04:11:53.209416  3918 net.cpp:411] data -> data
I1130 04:11:53.210268  3918 net.cpp:411] data -> label
I1130 04:11:53.210304  3918 data_transformer.cpp:25] Loading mean file from: data/ilsvrc12/imagenet_mean.binaryproto
I1130 04:11:53.266209  3918 image_data_layer.cpp:36] Opening file data/ispick_style/train
I1130 04:11:53.278903  3918 image_data_layer.cpp:51] A total of 14998 images.
I1130 04:11:53.297911  3918 image_data_layer.cpp:78] output data size: 32,3,227,227
I1130 04:11:53.331382  3918 net.cpp:150] Setting up data
I1130 04:11:53.331476  3918 net.cpp:157] Top shape: 32 3 227 227 (4946784)
I1130 04:11:53.331503  3918 net.cpp:157] Top shape: 32 (32)
I1130 04:11:53.331513  3918 net.cpp:165] Memory required for data: 19787264
I1130 04:11:53.331528  3918 layer_factory.hpp:76] Creating layer conv1
I1130 04:11:53.331564  3918 net.cpp:106] Creating Layer conv1
I1130 04:11:53.331579  3918 net.cpp:454] conv1 <- data
I1130 04:11:53.331600  3918 net.cpp:411] conv1 -> conv1
I1130 04:11:53.336159  3918 net.cpp:150] Setting up conv1
I1130 04:11:53.336189  3918 net.cpp:157] Top shape: 32 96 55 55 (9292800)
I1130 04:11:53.336199  3918 net.cpp:165] Memory required for data: 56958464
I1130 04:11:53.336228  3918 layer_factory.hpp:76] Creating layer relu1
I1130 04:11:53.336246  3918 net.cpp:106] Creating Layer relu1
I1130 04:11:53.336256  3918 net.cpp:454] relu1 <- conv1
I1130 04:11:53.336268  3918 net.cpp:397] relu1 -> conv1 (in-place)
I1130 04:11:53.337096  3918 net.cpp:150] Setting up relu1
I1130 04:11:53.337119  3918 net.cpp:157] Top shape: 32 96 55 55 (9292800)
I1130 04:11:53.337129  3918 net.cpp:165] Memory required for data: 94129664
I1130 04:11:53.337139  3918 layer_factory.hpp:76] Creating layer pool1
I1130 04:11:53.337154  3918 net.cpp:106] Creating Layer pool1
I1130 04:11:53.337169  3918 net.cpp:454] pool1 <- conv1
I1130 04:11:53.337182  3918 net.cpp:411] pool1 -> pool1
I1130 04:11:53.337244  3918 net.cpp:150] Setting up pool1
I1130 04:11:53.337265  3918 net.cpp:157] Top shape: 32 96 27 27 (2239488)
I1130 04:11:53.337275  3918 net.cpp:165] Memory required for data: 103087616
I1130 04:11:53.337283  3918 layer_factory.hpp:76] Creating layer norm1
I1130 04:11:53.337298  3918 net.cpp:106] Creating Layer norm1
I1130 04:11:53.337311  3918 net.cpp:454] norm1 <- pool1
I1130 04:11:53.337353  3918 net.cpp:411] norm1 -> norm1
I1130 04:11:53.337402  3918 net.cpp:150] Setting up norm1
I1130 04:11:53.337424  3918 net.cpp:157] Top shape: 32 96 27 27 (2239488)
I1130 04:11:53.337434  3918 net.cpp:165] Memory required for data: 112045568
I1130 04:11:53.337442  3918 layer_factory.hpp:76] Creating layer conv2
I1130 04:11:53.337457  3918 net.cpp:106] Creating Layer conv2
I1130 04:11:53.337468  3918 net.cpp:454] conv2 <- norm1
I1130 04:11:53.337481  3918 net.cpp:411] conv2 -> conv2
I1130 04:11:53.348508  3918 net.cpp:150] Setting up conv2
I1130 04:11:53.348537  3918 net.cpp:157] Top shape: 32 256 27 27 (5971968)
I1130 04:11:53.348548  3918 net.cpp:165] Memory required for data: 135933440
I1130 04:11:53.348564  3918 layer_factory.hpp:76] Creating layer relu2
I1130 04:11:53.348582  3918 net.cpp:106] Creating Layer relu2
I1130 04:11:53.348594  3918 net.cpp:454] relu2 <- conv2
I1130 04:11:53.348608  3918 net.cpp:397] relu2 -> conv2 (in-place)
I1130 04:11:53.348623  3918 net.cpp:150] Setting up relu2
I1130 04:11:53.348647  3918 net.cpp:157] Top shape: 32 256 27 27 (5971968)
I1130 04:11:53.348665  3918 net.cpp:165] Memory required for data: 159821312
I1130 04:11:53.348675  3918 layer_factory.hpp:76] Creating layer pool2
I1130 04:11:53.348690  3918 net.cpp:106] Creating Layer pool2
I1130 04:11:53.348700  3918 net.cpp:454] pool2 <- conv2
I1130 04:11:53.348712  3918 net.cpp:411] pool2 -> pool2
I1130 04:11:53.348763  3918 net.cpp:150] Setting up pool2
I1130 04:11:53.348784  3918 net.cpp:157] Top shape: 32 256 13 13 (1384448)
I1130 04:11:53.348794  3918 net.cpp:165] Memory required for data: 165359104
I1130 04:11:53.348803  3918 layer_factory.hpp:76] Creating layer norm2
I1130 04:11:53.348819  3918 net.cpp:106] Creating Layer norm2
I1130 04:11:53.348829  3918 net.cpp:454] norm2 <- pool2
I1130 04:11:53.348841  3918 net.cpp:411] norm2 -> norm2
I1130 04:11:53.348896  3918 net.cpp:150] Setting up norm2
I1130 04:11:53.348917  3918 net.cpp:157] Top shape: 32 256 13 13 (1384448)
I1130 04:11:53.348948  3918 net.cpp:165] Memory required for data: 170896896
I1130 04:11:53.348958  3918 layer_factory.hpp:76] Creating layer conv3
I1130 04:11:53.348986  3918 net.cpp:106] Creating Layer conv3
I1130 04:11:53.348996  3918 net.cpp:454] conv3 <- norm2
I1130 04:11:53.349021  3918 net.cpp:411] conv3 -> conv3
I1130 04:11:53.379221  3918 net.cpp:150] Setting up conv3
I1130 04:11:53.379251  3918 net.cpp:157] Top shape: 32 384 13 13 (2076672)
I1130 04:11:53.379262  3918 net.cpp:165] Memory required for data: 179203584
I1130 04:11:53.379278  3918 layer_factory.hpp:76] Creating layer relu3
I1130 04:11:53.379292  3918 net.cpp:106] Creating Layer relu3
I1130 04:11:53.379312  3918 net.cpp:454] relu3 <- conv3
I1130 04:11:53.379323  3918 net.cpp:397] relu3 -> conv3 (in-place)
I1130 04:11:53.379338  3918 net.cpp:150] Setting up relu3
I1130 04:11:53.379348  3918 net.cpp:157] Top shape: 32 384 13 13 (2076672)
I1130 04:11:53.379360  3918 net.cpp:165] Memory required for data: 187510272
I1130 04:11:53.379369  3918 layer_factory.hpp:76] Creating layer conv4
I1130 04:11:53.379384  3918 net.cpp:106] Creating Layer conv4
I1130 04:11:53.379392  3918 net.cpp:454] conv4 <- conv3
I1130 04:11:53.379405  3918 net.cpp:411] conv4 -> conv4
I1130 04:11:53.402024  3918 net.cpp:150] Setting up conv4
I1130 04:11:53.402055  3918 net.cpp:157] Top shape: 32 384 13 13 (2076672)
I1130 04:11:53.402065  3918 net.cpp:165] Memory required for data: 195816960
I1130 04:11:53.402084  3918 layer_factory.hpp:76] Creating layer relu4
I1130 04:11:53.402101  3918 net.cpp:106] Creating Layer relu4
I1130 04:11:53.402118  3918 net.cpp:454] relu4 <- conv4
I1130 04:11:53.402133  3918 net.cpp:397] relu4 -> conv4 (in-place)
I1130 04:11:53.402151  3918 net.cpp:150] Setting up relu4
I1130 04:11:53.402164  3918 net.cpp:157] Top shape: 32 384 13 13 (2076672)
I1130 04:11:53.402175  3918 net.cpp:165] Memory required for data: 204123648
I1130 04:11:53.402185  3918 layer_factory.hpp:76] Creating layer conv5
I1130 04:11:53.402206  3918 net.cpp:106] Creating Layer conv5
I1130 04:11:53.402245  3918 net.cpp:454] conv5 <- conv4
I1130 04:11:53.402259  3918 net.cpp:411] conv5 -> conv5
I1130 04:11:53.417480  3918 net.cpp:150] Setting up conv5
I1130 04:11:53.417506  3918 net.cpp:157] Top shape: 32 256 13 13 (1384448)
I1130 04:11:53.417516  3918 net.cpp:165] Memory required for data: 209661440
I1130 04:11:53.417533  3918 layer_factory.hpp:76] Creating layer relu5
I1130 04:11:53.417552  3918 net.cpp:106] Creating Layer relu5
I1130 04:11:53.417563  3918 net.cpp:454] relu5 <- conv5
I1130 04:11:53.417580  3918 net.cpp:397] relu5 -> conv5 (in-place)
I1130 04:11:53.417594  3918 net.cpp:150] Setting up relu5
I1130 04:11:53.417608  3918 net.cpp:157] Top shape: 32 256 13 13 (1384448)
I1130 04:11:53.417616  3918 net.cpp:165] Memory required for data: 215199232
I1130 04:11:53.417630  3918 layer_factory.hpp:76] Creating layer pool5
I1130 04:11:53.417644  3918 net.cpp:106] Creating Layer pool5
I1130 04:11:53.417654  3918 net.cpp:454] pool5 <- conv5
I1130 04:11:53.417665  3918 net.cpp:411] pool5 -> pool5
I1130 04:11:53.417714  3918 net.cpp:150] Setting up pool5
I1130 04:11:53.417734  3918 net.cpp:157] Top shape: 32 256 6 6 (294912)
I1130 04:11:53.417743  3918 net.cpp:165] Memory required for data: 216378880
I1130 04:11:53.417755  3918 layer_factory.hpp:76] Creating layer fc6
I1130 04:11:53.418782  3918 net.cpp:106] Creating Layer fc6
I1130 04:11:53.418803  3918 net.cpp:454] fc6 <- pool5
I1130 04:11:53.418817  3918 net.cpp:411] fc6 -> fc6
I1130 04:11:54.691746  3918 net.cpp:150] Setting up fc6
I1130 04:11:54.691805  3918 net.cpp:157] Top shape: 32 4096 (131072)
I1130 04:11:54.691817  3918 net.cpp:165] Memory required for data: 216903168
I1130 04:11:54.691834  3918 layer_factory.hpp:76] Creating layer relu6
I1130 04:11:54.691853  3918 net.cpp:106] Creating Layer relu6
I1130 04:11:54.691862  3918 net.cpp:454] relu6 <- fc6
I1130 04:11:54.691876  3918 net.cpp:397] relu6 -> fc6 (in-place)
I1130 04:11:54.691893  3918 net.cpp:150] Setting up relu6
I1130 04:11:54.691905  3918 net.cpp:157] Top shape: 32 4096 (131072)
I1130 04:11:54.691913  3918 net.cpp:165] Memory required for data: 217427456
I1130 04:11:54.691922  3918 layer_factory.hpp:76] Creating layer drop6
I1130 04:11:54.691944  3918 net.cpp:106] Creating Layer drop6
I1130 04:11:54.691962  3918 net.cpp:454] drop6 <- fc6
I1130 04:11:54.691974  3918 net.cpp:397] drop6 -> fc6 (in-place)
I1130 04:11:54.692015  3918 net.cpp:150] Setting up drop6
I1130 04:11:54.692035  3918 net.cpp:157] Top shape: 32 4096 (131072)
I1130 04:11:54.692045  3918 net.cpp:165] Memory required for data: 217951744
I1130 04:11:54.692061  3918 layer_factory.hpp:76] Creating layer fc7
I1130 04:11:54.692076  3918 net.cpp:106] Creating Layer fc7
I1130 04:11:54.692095  3918 net.cpp:454] fc7 <- fc6
I1130 04:11:54.692109  3918 net.cpp:411] fc7 -> fc7
I1130 04:11:55.251752  3918 net.cpp:150] Setting up fc7
I1130 04:11:55.251808  3918 net.cpp:157] Top shape: 32 4096 (131072)
I1130 04:11:55.251819  3918 net.cpp:165] Memory required for data: 218476032
I1130 04:11:55.251837  3918 layer_factory.hpp:76] Creating layer relu7
I1130 04:11:55.251855  3918 net.cpp:106] Creating Layer relu7
I1130 04:11:55.251865  3918 net.cpp:454] relu7 <- fc7
I1130 04:11:55.251879  3918 net.cpp:397] relu7 -> fc7 (in-place)
I1130 04:11:55.251896  3918 net.cpp:150] Setting up relu7
I1130 04:11:55.251907  3918 net.cpp:157] Top shape: 32 4096 (131072)
I1130 04:11:55.251916  3918 net.cpp:165] Memory required for data: 219000320
I1130 04:11:55.251925  3918 layer_factory.hpp:76] Creating layer drop7
I1130 04:11:55.251940  3918 net.cpp:106] Creating Layer drop7
I1130 04:11:55.251948  3918 net.cpp:454] drop7 <- fc7
I1130 04:11:55.251960  3918 net.cpp:397] drop7 -> fc7 (in-place)
I1130 04:11:55.251993  3918 net.cpp:150] Setting up drop7
I1130 04:11:55.252008  3918 net.cpp:157] Top shape: 32 4096 (131072)
I1130 04:11:55.252018  3918 net.cpp:165] Memory required for data: 219524608
I1130 04:11:55.252027  3918 layer_factory.hpp:76] Creating layer fc8_flickr
I1130 04:11:55.252041  3918 net.cpp:106] Creating Layer fc8_flickr
I1130 04:11:55.252091  3918 net.cpp:454] fc8_flickr <- fc7
I1130 04:11:55.252105  3918 net.cpp:411] fc8_flickr -> fc8_flickr
I1130 04:11:55.253017  3918 net.cpp:150] Setting up fc8_flickr
I1130 04:11:55.253043  3918 net.cpp:157] Top shape: 32 2 (64)
I1130 04:11:55.253054  3918 net.cpp:165] Memory required for data: 219524864
I1130 04:11:55.253067  3918 layer_factory.hpp:76] Creating layer loss
I1130 04:11:55.253087  3918 net.cpp:106] Creating Layer loss
I1130 04:11:55.253104  3918 net.cpp:454] loss <- fc8_flickr
I1130 04:11:55.253116  3918 net.cpp:454] loss <- label
I1130 04:11:55.253139  3918 net.cpp:411] loss -> loss
I1130 04:11:55.253167  3918 layer_factory.hpp:76] Creating layer loss
…
I1130 04:11:55.254276  3918 net.cpp:322] The NetState phase (1) differed from the phase (0) specified by a rule in layer data
I1130 04:11:55.254482  3918 net.cpp:49] Initializing net from parameters: 
name: "FlickrStyleCaffeNet"
state {
  phase: TEST
}
layer {
  name: "data"
  type: "ImageData"
  top: "data"
  top: "label"
  include {
    phase: TEST
  }
  transform_param {
    mirror: false
    crop_size: 227
    mean_file: "data/ilsvrc12/imagenet_mean.binaryproto"
  }
  image_data_param {
    source: "data/ispick_style/val"
    batch_size: 32
    new_height: 256
    new_width: 256
  }
}
layer {
  name: "conv1"
  type: "Convolution"
  bottom: "data"
  top: "conv1"
  param {
    lr_mult: 1
    decay_mult: 1
  }
  param {
    lr_mult: 2
    decay_mult: 0
  }
  convolution_param {
    num_output: 96
    kernel_size: 11
    stride: 4
    weight_filler {
      type: "gaussian"
      std: 0.01
    }
    bias_filler {
      type: "constant"
      value: 0
    }
  }
}
layer {
  name: "relu1"
  type: "ReLU"
  bottom: "conv1"
  top: "conv1"
}
layer {
  name: "pool1"
  type: "Pooling"
  bottom: "conv1"
  top: "pool1"
  pooling_param {
    pool: MAX
    kernel_size: 3
    stride: 2
  }
}
layer {
  name: "norm1"
  type: "LRN"
  bottom: "pool1"
  top: "norm1"
  lrn_param {
    local_size: 5
    alpha: 0.0001
    beta: 0.75
  }
}
layer {
  name: "conv2"
  type: "Convolution"
  bottom: "norm1"
  top: "conv2"
  param {
    lr_mult: 1
    decay_mult: 1
  }
  param {
    lr_mult: 2
    decay_mult: 0
  }
  convolution_param {
    num_output: 256
    pad: 2
    kernel_size: 5
    group: 2
    weight_filler {
      type: "gaussian"
      std: 0.01
    }
    bias_filler {
      type: "constant"
      value: 1
    }
  }
}
layer {
  name: "relu2"
  type: "ReLU"
  bottom: "conv2"
  top: "conv2"
}
layer {
  name: "pool2"
  type: "Pooling"
  bottom: "conv2"
  top: "pool2"
  pooling_param {
    pool: MAX
    kernel_size: 3
    stride: 2
  }
}
layer {
  name: "norm2"
  type: "LRN"
  bottom: "pool2"
  top: "norm2"
  lrn_param {
    local_size: 5
    alpha: 0.0001
    beta: 0.75
  }
}
layer {
  name: "conv3"
  type: "Convolution"
  bottom: "norm2"
  top: "conv3"
  param {
    lr_mult: 1
    decay_mult: 1
  }
  param {
    lr_mult: 2
    decay_mult: 0
  }
  convolution_param {
    num_output: 384
    pad: 1
    kernel_size: 3
    weight_filler {
      type: "gaussian"
      std: 0.01
    }
    bias_filler {
      type: "constant"
      value: 0
    }
  }
}
layer {
  name: "relu3"
  type: "ReLU"
  bottom: "conv3"
  top: "conv3"
}
layer {
  name: "conv4"
  type: "Convolution"
  bottom: "conv3"
  top: "conv4"
  param {
    lr_mult: 1
    decay_mult: 1
  }
  param {
    lr_mult: 2
    decay_mult: 0
  }
  convolution_param {
    num_output: 384
    pad: 1
    kernel_size: 3
    group: 2
    weight_filler {
      type: "gaussian"
      std: 0.01
    }
    bias_filler {
      type: "constant"
      value: 1
    }
  }
}
layer {
  name: "relu4"
  type: "ReLU"
  bottom: "conv4"
  top: "conv4"
}
layer {
  name: "conv5"
  type: "Convolution"
  bottom: "conv4"
  top: "conv5"
  param {
    lr_mult: 1
    decay_mult: 1
  }
  param {
    lr_mult: 2
    decay_mult: 0
  }
  convolution_param {
    num_output: 256
    pad: 1
    kernel_size: 3
    group: 2
    weight_filler {
      type: "gaussian"
      std: 0.01
    }
    bias_filler {
      type: "constant"
      value: 1
    }
  }
}
layer {
  name: "relu5"
  type: "ReLU"
  bottom: "conv5"
  top: "conv5"
}
layer {
  name: "pool5"
  type: "Pooling"
  bottom: "conv5"
  top: "pool5"
  pooling_param {
    pool: MAX
    kernel_size: 3
    stride: 2
  }
}
layer {
  name: "fc6"
  type: "InnerProduct"
  bottom: "pool5"
  top: "fc6"
  param {
    lr_mult: 1
    decay_mult: 1
  }
  param {
    lr_mult: 2
    decay_mult: 0
  }
  inner_product_param {
    num_output: 4096
    weight_filler {
      type: "gaussian"
      std: 0.005
    }
    bias_filler {
      type: "constant"
      value: 1
    }
  }
}
layer {
  name: "relu6"
  type: "ReLU"
  bottom: "fc6"
  top: "fc6"
}
layer {
  name: "drop6"
  type: "Dropout"
  bottom: "fc6"
  top: "fc6"
  dropout_param {
    dropout_ratio: 0.5
  }
}
layer {
  name: "fc7"
  type: "InnerProduct"
  bottom: "fc6"
  top: "fc7"
  param {
    lr_mult: 1
    decay_mult: 1
  }
  param {
    lr_mult: 2
    decay_mult: 0
  }
  inner_product_param {
    num_output: 4096
    weight_filler {
      type: "gaussian"
      std: 0.005
    }
    bias_filler {
      type: "constant"
      value: 1
    }
  }
}
layer {
  name: "relu7"
  type: "ReLU"
  bottom: "fc7"
  top: "fc7"
}
layer {
  name: "drop7"
  type: "Dropout"
  bottom: "fc7"
  top: "fc7"
  dropout_param {
    dropout_ratio: 0.5
  }
}
layer {
  name: "fc8_flickr"
  type: "InnerProduct"
  bottom: "fc7"
  top: "fc8_flickr"
  param {
    lr_mult: 10
    decay_mult: 1
  }
  param {
    lr_mult: 20
    decay_mult: 0
  }
  inner_product_param {
    num_output: 2
    weight_filler {
      type: "gaussian"
      std: 0.01
    }
    bias_filler {
      type: "constant"
      value: 0
    }
  }
}
layer {
  name: "accuracy"
  type: "Accuracy"
  bottom: "fc8_flickr"
  bottom: "label"
  top: "accuracy"
  include {
    phase: TEST
  }
}
layer {
  name: "loss"
  type: "SoftmaxWithLoss"
  bottom: "fc8_flickr"
  bottom: "label"
  top: "loss"
}
I1130 04:11:55.255789  3918 layer_factory.hpp:76] Creating layer data
I1130 04:11:55.255820  3918 net.cpp:106] Creating Layer data
I1130 04:11:55.255837  3918 net.cpp:411] data -> data
I1130 04:11:55.255853  3918 net.cpp:411] data -> label
I1130 04:11:55.255874  3918 data_transformer.cpp:25] Loading mean file from: data/ilsvrc12/imagenet_mean.binaryproto
I1130 04:11:55.258111  3918 image_data_layer.cpp:36] Opening file data/ispick_style/val
I1130 04:11:55.263058  3918 image_data_layer.cpp:51] A total of 5000 images.
I1130 04:11:55.267084  3918 image_data_layer.cpp:78] output data size: 32,3,227,227
I1130 04:11:55.300938  3918 net.cpp:150] Setting up data
I1130 04:11:55.300995  3918 net.cpp:157] Top shape: 32 3 227 227 (4946784)
I1130 04:11:55.301008  3918 net.cpp:157] Top shape: 32 (32)
I1130 04:11:55.301017  3918 net.cpp:165] Memory required for data: 19787264
I1130 04:11:55.301030  3918 layer_factory.hpp:76] Creating layer label_data_1_split
I1130 04:11:55.301056  3918 net.cpp:106] Creating Layer label_data_1_split
I1130 04:11:55.301074  3918 net.cpp:454] label_data_1_split <- label
I1130 04:11:55.301090  3918 net.cpp:411] label_data_1_split -> label_data_1_split_0
I1130 04:11:55.301112  3918 net.cpp:411] label_data_1_split -> label_data_1_split_1
I1130 04:11:55.301174  3918 net.cpp:150] Setting up label_data_1_split
I1130 04:11:55.301195  3918 net.cpp:157] Top shape: 32 (32)
I1130 04:11:55.301218  3918 net.cpp:157] Top shape: 32 (32)
I1130 04:11:55.301228  3918 net.cpp:165] Memory required for data: 19787520
I1130 04:11:55.301242  3918 layer_factory.hpp:76] Creating layer conv1
I1130 04:11:55.301278  3918 net.cpp:106] Creating Layer conv1
I1130 04:11:55.301297  3918 net.cpp:454] conv1 <- data
I1130 04:11:55.301311  3918 net.cpp:411] conv1 -> conv1
I1130 04:11:55.302667  3918 net.cpp:150] Setting up conv1
I1130 04:11:55.302693  3918 net.cpp:157] Top shape: 32 96 55 55 (9292800)
I1130 04:11:55.302705  3918 net.cpp:165] Memory required for data: 56958720
I1130 04:11:55.302723  3918 layer_factory.hpp:76] Creating layer relu1
I1130 04:11:55.302742  3918 net.cpp:106] Creating Layer relu1
I1130 04:11:55.302758  3918 net.cpp:454] relu1 <- conv1
I1130 04:11:55.302770  3918 net.cpp:397] relu1 -> conv1 (in-place)
I1130 04:11:55.302788  3918 net.cpp:150] Setting up relu1
I1130 04:11:55.302800  3918 net.cpp:157] Top shape: 32 96 55 55 (9292800)
I1130 04:11:55.302814  3918 net.cpp:165] Memory required for data: 94129920
I1130 04:11:55.302824  3918 layer_factory.hpp:76] Creating layer pool1
I1130 04:11:55.302844  3918 net.cpp:106] Creating Layer pool1
I1130 04:11:55.302857  3918 net.cpp:454] pool1 <- conv1
I1130 04:11:55.302870  3918 net.cpp:411] pool1 -> pool1
I1130 04:11:55.302920  3918 net.cpp:150] Setting up pool1
I1130 04:11:55.302940  3918 net.cpp:157] Top shape: 32 96 27 27 (2239488)
I1130 04:11:55.302952  3918 net.cpp:165] Memory required for data: 103087872
I1130 04:11:55.302963  3918 layer_factory.hpp:76] Creating layer norm1
I1130 04:11:55.302978  3918 net.cpp:106] Creating Layer norm1
I1130 04:11:55.302991  3918 net.cpp:454] norm1 <- pool1
I1130 04:11:55.303004  3918 net.cpp:411] norm1 -> norm1
I1130 04:11:55.303050  3918 net.cpp:150] Setting up norm1
I1130 04:11:55.303069  3918 net.cpp:157] Top shape: 32 96 27 27 (2239488)
I1130 04:11:55.303081  3918 net.cpp:165] Memory required for data: 112045824
I1130 04:11:55.303092  3918 layer_factory.hpp:76] Creating layer conv2
I1130 04:11:55.303107  3918 net.cpp:106] Creating Layer conv2
I1130 04:11:55.303122  3918 net.cpp:454] conv2 <- norm1
I1130 04:11:55.303135  3918 net.cpp:411] conv2 -> conv2
I1130 04:11:55.313750  3918 net.cpp:150] Setting up conv2
I1130 04:11:55.313781  3918 net.cpp:157] Top shape: 32 256 27 27 (5971968)
I1130 04:11:55.313789  3918 net.cpp:165] Memory required for data: 135933696
I1130 04:11:55.313807  3918 layer_factory.hpp:76] Creating layer relu2
I1130 04:11:55.313827  3918 net.cpp:106] Creating Layer relu2
I1130 04:11:55.313841  3918 net.cpp:454] relu2 <- conv2
I1130 04:11:55.313885  3918 net.cpp:397] relu2 -> conv2 (in-place)
I1130 04:11:55.313902  3918 net.cpp:150] Setting up relu2
I1130 04:11:55.313918  3918 net.cpp:157] Top shape: 32 256 27 27 (5971968)
I1130 04:11:55.313930  3918 net.cpp:165] Memory required for data: 159821568
I1130 04:11:55.313941  3918 layer_factory.hpp:76] Creating layer pool2
I1130 04:11:55.313956  3918 net.cpp:106] Creating Layer pool2
I1130 04:11:55.313971  3918 net.cpp:454] pool2 <- conv2
I1130 04:11:55.313984  3918 net.cpp:411] pool2 -> pool2
I1130 04:11:55.314035  3918 net.cpp:150] Setting up pool2
I1130 04:11:55.314056  3918 net.cpp:157] Top shape: 32 256 13 13 (1384448)
I1130 04:11:55.314067  3918 net.cpp:165] Memory required for data: 165359360
I1130 04:11:55.314077  3918 layer_factory.hpp:76] Creating layer norm2
I1130 04:11:55.314091  3918 net.cpp:106] Creating Layer norm2
I1130 04:11:55.314106  3918 net.cpp:454] norm2 <- pool2
I1130 04:11:55.314119  3918 net.cpp:411] norm2 -> norm2
I1130 04:11:55.314164  3918 net.cpp:150] Setting up norm2
I1130 04:11:55.314183  3918 net.cpp:157] Top shape: 32 256 13 13 (1384448)
I1130 04:11:55.314194  3918 net.cpp:165] Memory required for data: 170897152
I1130 04:11:55.314205  3918 layer_factory.hpp:76] Creating layer conv3
I1130 04:11:55.314219  3918 net.cpp:106] Creating Layer conv3
I1130 04:11:55.314234  3918 net.cpp:454] conv3 <- norm2
I1130 04:11:55.314247  3918 net.cpp:411] conv3 -> conv3
I1130 04:11:55.344442  3918 net.cpp:150] Setting up conv3
I1130 04:11:55.344480  3918 net.cpp:157] Top shape: 32 384 13 13 (2076672)
I1130 04:11:55.344491  3918 net.cpp:165] Memory required for data: 179203840
I1130 04:11:55.344508  3918 layer_factory.hpp:76] Creating layer relu3
I1130 04:11:55.344537  3918 net.cpp:106] Creating Layer relu3
I1130 04:11:55.344553  3918 net.cpp:454] relu3 <- conv3
I1130 04:11:55.344566  3918 net.cpp:397] relu3 -> conv3 (in-place)
I1130 04:11:55.344586  3918 net.cpp:150] Setting up relu3
I1130 04:11:55.344597  3918 net.cpp:157] Top shape: 32 384 13 13 (2076672)
I1130 04:11:55.344612  3918 net.cpp:165] Memory required for data: 187510528
I1130 04:11:55.344622  3918 layer_factory.hpp:76] Creating layer conv4
I1130 04:11:55.344641  3918 net.cpp:106] Creating Layer conv4
I1130 04:11:55.344656  3918 net.cpp:454] conv4 <- conv3
I1130 04:11:55.344671  3918 net.cpp:411] conv4 -> conv4
I1130 04:11:55.367566  3918 net.cpp:150] Setting up conv4
I1130 04:11:55.367599  3918 net.cpp:157] Top shape: 32 384 13 13 (2076672)
I1130 04:11:55.367609  3918 net.cpp:165] Memory required for data: 195817216
I1130 04:11:55.367625  3918 layer_factory.hpp:76] Creating layer relu4
I1130 04:11:55.367650  3918 net.cpp:106] Creating Layer relu4
I1130 04:11:55.367671  3918 net.cpp:454] relu4 <- conv4
I1130 04:11:55.367684  3918 net.cpp:397] relu4 -> conv4 (in-place)
I1130 04:11:55.367703  3918 net.cpp:150] Setting up relu4
I1130 04:11:55.367722  3918 net.cpp:157] Top shape: 32 384 13 13 (2076672)
I1130 04:11:55.367738  3918 net.cpp:165] Memory required for data: 204123904
I1130 04:11:55.367748  3918 layer_factory.hpp:76] Creating layer conv5
I1130 04:11:55.367774  3918 net.cpp:106] Creating Layer conv5
I1130 04:11:55.367789  3918 net.cpp:454] conv5 <- conv4
I1130 04:11:55.367805  3918 net.cpp:411] conv5 -> conv5
I1130 04:11:55.383082  3918 net.cpp:150] Setting up conv5
I1130 04:11:55.383111  3918 net.cpp:157] Top shape: 32 256 13 13 (1384448)
I1130 04:11:55.383132  3918 net.cpp:165] Memory required for data: 209661696
I1130 04:11:55.383153  3918 layer_factory.hpp:76] Creating layer relu5
I1130 04:11:55.383172  3918 net.cpp:106] Creating Layer relu5
I1130 04:11:55.383188  3918 net.cpp:454] relu5 <- conv5
I1130 04:11:55.383218  3918 net.cpp:397] relu5 -> conv5 (in-place)
I1130 04:11:55.383246  3918 net.cpp:150] Setting up relu5
I1130 04:11:55.383265  3918 net.cpp:157] Top shape: 32 256 13 13 (1384448)
I1130 04:11:55.383275  3918 net.cpp:165] Memory required for data: 215199488
I1130 04:11:55.383292  3918 layer_factory.hpp:76] Creating layer pool5
I1130 04:11:55.383311  3918 net.cpp:106] Creating Layer pool5
I1130 04:11:55.383357  3918 net.cpp:454] pool5 <- conv5
I1130 04:11:55.383388  3918 net.cpp:411] pool5 -> pool5
I1130 04:11:55.383445  3918 net.cpp:150] Setting up pool5
I1130 04:11:55.383466  3918 net.cpp:157] Top shape: 32 256 6 6 (294912)
I1130 04:11:55.383479  3918 net.cpp:165] Memory required for data: 216379136
I1130 04:11:55.383491  3918 layer_factory.hpp:76] Creating layer fc6
I1130 04:11:55.383509  3918 net.cpp:106] Creating Layer fc6
I1130 04:11:55.383524  3918 net.cpp:454] fc6 <- pool5
I1130 04:11:55.383538  3918 net.cpp:411] fc6 -> fc6
I1130 04:11:56.659657  3918 net.cpp:150] Setting up fc6
I1130 04:11:56.659704  3918 net.cpp:157] Top shape: 32 4096 (131072)
I1130 04:11:56.659718  3918 net.cpp:165] Memory required for data: 216903424
I1130 04:11:56.659735  3918 layer_factory.hpp:76] Creating layer relu6
I1130 04:11:56.659752  3918 net.cpp:106] Creating Layer relu6
I1130 04:11:56.659764  3918 net.cpp:454] relu6 <- fc6
I1130 04:11:56.659778  3918 net.cpp:397] relu6 -> fc6 (in-place)
I1130 04:11:56.659798  3918 net.cpp:150] Setting up relu6
I1130 04:11:56.659809  3918 net.cpp:157] Top shape: 32 4096 (131072)
I1130 04:11:56.659818  3918 net.cpp:165] Memory required for data: 217427712
I1130 04:11:56.659828  3918 layer_factory.hpp:76] Creating layer drop6
I1130 04:11:56.659842  3918 net.cpp:106] Creating Layer drop6
I1130 04:11:56.659852  3918 net.cpp:454] drop6 <- fc6
I1130 04:11:56.659862  3918 net.cpp:397] drop6 -> fc6 (in-place)
I1130 04:11:56.659900  3918 net.cpp:150] Setting up drop6
I1130 04:11:56.659920  3918 net.cpp:157] Top shape: 32 4096 (131072)
I1130 04:11:56.659929  3918 net.cpp:165] Memory required for data: 217952000
I1130 04:11:56.659940  3918 layer_factory.hpp:76] Creating layer fc7
I1130 04:11:56.659961  3918 net.cpp:106] Creating Layer fc7
I1130 04:11:56.659971  3918 net.cpp:454] fc7 <- fc6
I1130 04:11:56.659986  3918 net.cpp:411] fc7 -> fc7
I1130 04:11:57.220918  3918 net.cpp:150] Setting up fc7
I1130 04:11:57.220983  3918 net.cpp:157] Top shape: 32 4096 (131072)
I1130 04:11:57.220994  3918 net.cpp:165] Memory required for data: 218476288
I1130 04:11:57.221010  3918 layer_factory.hpp:76] Creating layer relu7
I1130 04:11:57.221029  3918 net.cpp:106] Creating Layer relu7
I1130 04:11:57.221040  3918 net.cpp:454] relu7 <- fc7
I1130 04:11:57.221055  3918 net.cpp:397] relu7 -> fc7 (in-place)
I1130 04:11:57.221071  3918 net.cpp:150] Setting up relu7
I1130 04:11:57.221084  3918 net.cpp:157] Top shape: 32 4096 (131072)
I1130 04:11:57.221097  3918 net.cpp:165] Memory required for data: 219000576
I1130 04:11:57.221107  3918 layer_factory.hpp:76] Creating layer drop7
I1130 04:11:57.221120  3918 net.cpp:106] Creating Layer drop7
I1130 04:11:57.221130  3918 net.cpp:454] drop7 <- fc7
I1130 04:11:57.221143  3918 net.cpp:397] drop7 -> fc7 (in-place)
I1130 04:11:57.221179  3918 net.cpp:150] Setting up drop7
I1130 04:11:57.221199  3918 net.cpp:157] Top shape: 32 4096 (131072)
I1130 04:11:57.221207  3918 net.cpp:165] Memory required for data: 219524864
I1130 04:11:57.221217  3918 layer_factory.hpp:76] Creating layer fc8_flickr
I1130 04:11:57.221235  3918 net.cpp:106] Creating Layer fc8_flickr
I1130 04:11:57.221247  3918 net.cpp:454] fc8_flickr <- fc7
I1130 04:11:57.221261  3918 net.cpp:411] fc8_flickr -> fc8_flickr
I1130 04:11:57.221635  3918 net.cpp:150] Setting up fc8_flickr
I1130 04:11:57.221659  3918 net.cpp:157] Top shape: 32 2 (64)
I1130 04:11:57.221669  3918 net.cpp:165] Memory required for data: 219525120
I1130 04:11:57.221683  3918 layer_factory.hpp:76] Creating layer fc8_flickr_fc8_flickr_0_split
I1130 04:11:57.221701  3918 net.cpp:106] Creating Layer fc8_flickr_fc8_flickr_0_split
I1130 04:11:57.221711  3918 net.cpp:454] fc8_flickr_fc8_flickr_0_split <- fc8_flickr
I1130 04:11:57.221724  3918 net.cpp:411] fc8_flickr_fc8_flickr_0_split -> fc8_flickr_fc8_flickr_0_split_0
I1130 04:11:57.221738  3918 net.cpp:411] fc8_flickr_fc8_flickr_0_split -> fc8_flickr_fc8_flickr_0_split_1
I1130 04:11:57.221786  3918 net.cpp:150] Setting up fc8_flickr_fc8_flickr_0_split
I1130 04:11:57.221807  3918 net.cpp:157] Top shape: 32 2 (64)
I1130 04:11:57.221870  3918 net.cpp:157] Top shape: 32 2 (64)
I1130 04:11:57.221880  3918 net.cpp:165] Memory required for data: 219525632
I1130 04:11:57.221889  3918 layer_factory.hpp:76] Creating layer accuracy
I1130 04:11:57.221909  3918 net.cpp:106] Creating Layer accuracy
I1130 04:11:57.221925  3918 net.cpp:454] accuracy <- fc8_flickr_fc8_flickr_0_split_0
I1130 04:11:57.221936  3918 net.cpp:454] accuracy <- label_data_1_split_0
I1130 04:11:57.221949  3918 net.cpp:411] accuracy -> accuracy
…
